models/hey_haley.tflite (tflite, 206748 bytes, 9 tensors)

Const_1 f4 [32]
000000 10 dd a6 bb 69 e7 c9 3b 41 f4 43 bb cc 7e b5 3c
       -0.0050922707 0.0061616194 -0.0029900225 0.022155188
000010 22 47 af ba 78 ff 04 bb cd 2c 41 bc ee 1b 0a bc
       -0.001337264 -0.0020293873 -0.0117904665 -0.0084295105
000020 4e 56 c2 bc 42 fd 84 bb 31 32 86 bc 39 ad d0 bc
       -0.023722794 -0.004058511 -0.016381355 -0.025473224
000030 8a 94 e5 3c 65 ab 47 3c 27 a0 9e 3c 12 3c 94 ba
       0.02802493 0.01218686 0.019363476 -0.0011309406
000040 c4 51 9d bc e4 85 12 3c bf 34 8d 3c 8c ff 09 bc
       -0.019204028 0.008943055 0.017237065 -0.0084227435
000050 15 04 be bb 5f 72 c0 3c 65 e4 69 ba 4d e1 d6 bb
       -0.0057988265 0.023492036 -0.0008922278 -0.0065576197
000060 65 95 d8 3c 87 b6 b5 ba a2 47 e2 3c 0e c1 9b 3c
       0.026438424 -0.0013863601 0.027622048 0.019012954
000070 a9 aa 6d 3c f9 f0 bd 3b d1 88 a1 bc 70 3a 68 bc
       0.014506021 0.0057965484 -0.01971856 -0.014174089

Const_2 f4 [32]
000000 52 81 7c 3f 00 0b 7b 3f 58 db 7e 3f 7e 76 8b 3f
       0.9863483 0.9806366 0.9955344 1.0895536
000010 94 0e 7c 3f 6c 81 7d 3f c9 9f 82 3f b0 8f 7f 3f
       0.98459744 0.9902561 1.0205013 0.99828625
000020 b0 4d 7d 3f e7 c5 7e 3f 80 4e 75 3f d6 03 7b 3f
       0.98946667 0.99520725 0.95822906 0.9805273
000030 d2 9b 7b 3f c1 eb 7b 3f 4c d8 7e 3f 07 e4 82 3f
       0.9828464 0.98406607 0.9954879 1.0225838
000040 81 43 82 3f 56 0a 85 3f df 5e 81 3f e2 cd 78 3f
       1.017685 1.0393779 1.0107077 0.9718915
000050 70 55 7a 3f c6 a5 7e 3f 1e f4 7f 3f 17 77 76 3f
       0.9778662 0.994717 0.9998187 0.96275467
000060 df 89 7b 3f 18 51 82 3f 0b 0d 83 3f 27 6d 7c 3f
       0.9825725 1.0180998 1.0238355 0.98604053
000070 b7 fc 82 3f 28 46 7d 3f 3f 4e 7d 3f 59 49 84 3f
       1.0233372 0.98935175 0.9894752 1.0334884

Const_3 f4 [32]
000000 fe 8c a2 bc 69 a6 96 bc 8f 18 ee 3b 59 38 b6 3c
       -0.019842621 -0.018389897 0.007266111 0.022243666
000010 da df db bc 7e d2 80 bc 01 60 04 3c 4f 78 ed 3b
       -0.02684014 -0.01572537 0.00807953 0.007247008
000020 3c b6 dd bb ea 70 63 bb 86 db 36 bd 36 80 a7 bc
       -0.006766109 -0.0034704753 -0.044642948 -0.020446878
000030 a6 5b 31 bc ac 1a 7d bb dc c0 20 3c 63 80 50 3c
       -0.010825073 -0.0038620634 0.009811606 0.012725922
000040 43 59 86 3b b9 f2 d5 3c 6e e9 62 3c 15 b8 cf bc
       0.0040999963 0.026116716 0.013849599 -0.025356332
000050 ca 92 88 3c 27 22 19 bc 24 48 1a 3c 8a a8 2e bd
       0.016671557 -0.009346521 0.009416614 -0.0426412
000060 6d 92 e1 3b 38 c0 16 3c 29 2c 7e 3b 54 38 0b bc
       0.0068839104 0.009201102 0.0038783646 -0.008497316
000070 88 35 1c 3c bb a4 7a bc 78 2f 04 bc be 6a d8 3b
       0.009534247 -0.015298064 -0.008067958 0.0066045215

Const_5 f4 [32]
000000 74 c2 63 3d 0a 64 83 bc 73 d6 08 3e a8 35 bb 3d
       0.055605367 -0.016038913 0.13363056 0.091410935
000010 31 82 0d 3d 0b e4 64 bc 59 ba 9e 3c 12 56 0e be
       0.03454799 -0.013970385 0.019375967 -0.1390002
000020 40 bd 4d bd fc 05 1b be 87 9f 2f 3d 37 b2 41 3d
       -0.05022931 -0.15139002 0.042876747 0.0472891
000030 59 4f b2 3c 4b b2 19 3c a3 06 bc 3d fa bb 1e 3e
       0.021766352 0.009380887 0.09180953 0.15501395
000040 ad 53 fa bc ca f1 fe bc c4 d5 2b 3e e4 3a 27 3e
       -0.030557478 -0.031121153 0.16780764 0.16331059
000050 3d 04 3f 3e d9 6a 08 be a7 94 0d bc 09 74 07 be
       0.1865396 -0.13322009 -0.0086413985 -0.13227858
000060 3e 43 28 be 23 bf 98 3d 83 b8 f6 bd fb 32 90 bd
       -0.16431901 0.074583314 -0.120469116 -0.07040974
000070 08 fd ce bc 71 f5 02 3e 85 59 31 be 11 e1 f0 bd
       -0.02526714 0.12788941 -0.17319305 -0.11761678

Const_6 f4 [32]
000000 89 c7 89 3f c3 a4 83 3f ea 91 8c 3f 9e 8d 81 3f
       1.0764018 1.0284656 1.098203 1.0121343
000010 d6 52 89 3f d7 10 8a 3f e7 5c a7 3f d8 f3 81 3f
       1.0728405 1.0786389 1.3075227 1.015254
000020 c0 78 7c 3f 4a cb 9f 3f ec 0c 8d 3f d3 34 a5 3f
       0.9862175 1.2483914 1.1019568 1.2906746
000030 95 1d b1 3f 66 27 88 3f d9 cd a8 3f 56 f3 8c 3f
       1.3837153 1.0637023 1.318782 1.101176
000040 8d f1 ac 3f 8a c0 86 3f 60 2b 82 3f 36 57 84 3f
       1.3511215 1.0527508 1.0169487 1.0339115
000050 ae 55 8d 3f 19 42 9b 3f 7a 37 89 3f 35 3e ab 3f
       1.1041772 1.2129546 1.0720055 1.3378359
000060 a5 c5 b4 3f 2d 45 88 3f b0 da 88 3f 9b 41 90 3f
       1.4122816 1.0646111 1.0691738 1.1270021
000070 88 82 7b 3f 39 cd 87 3f 58 c2 9c 3f 2c 38 8f 3f
       0.9824605 1.0609504 1.2246809 1.1189017

Const_7 f4 [32]
000000 50 f1 86 3d b5 fd 0f 3d c3 f9 9a 3d e9 e5 91 3a
       0.065889955 0.035154063 0.075671695 0.0011131141
000010 72 65 6c 3d e1 cb 77 3d 21 6b 8e 3e 2a 9b d8 3a
       0.057713933 0.06049717 0.27816108 0.0016525735
000020 c6 58 2c bc 0a b5 7d 3e c5 2e 5e 3d 53 07 8a 3e
       -0.010519212 0.24776092 0.05424382 0.26958713
000030 eb f7 9d 3e 9a a5 81 3d 60 97 8f 3e 28 50 bd 3d
       0.3085321 0.06330414 0.28045177 0.09243804
000040 3e e6 98 3e fb 2c 1f 3d c2 4e 22 3c 2a ca 15 3d
       0.2986316 0.038861256 0.009906473 0.03656975
000050 79 da 9a 3d 27 ca 70 3e 26 34 7f 3c 3d fa 93 3e
       0.075612016 0.23514615 0.015576398 0.28901854
000060 cd 2b a0 3e 6e 35 45 3d 70 93 21 3d b3 f1 c3 3d
       0.31283417 0.048146658 0.039447248 0.09567585
000070 a1 c9 d2 bc 83 9e 78 3d fe 45 77 3e 5b c0 e6 3d
       -0.02573091 0.060698044 0.24147794 0.11267158

MatMul f4 [32, 1536]
000000 0c 88 ea 3c 65 98 d5 3b ed 4c 87 3c 11 1f f4 3c
       0.028629325 0.006518411 0.016516173 0.02979997
000010 f1 c8 99 3c 29 bb 75 3c 87 3d ee bc 60 15 5f 3c
       0.018772574 0.014998236 -0.029082073 0.013615936
000020 cb 81 df bc ed 5a 7a bb 7d 5c 44 3c 65 a2 2b bc
       -0.02728357 -0.0038201169 0.011984942 -0.01047573
000030 b8 0e 87 3c 9c 15 12 3d 74 09 e1 bc 29 0c ca bc
       0.01648651 0.03566514 -0.027470328 -0.024664002
000040 0a ea 51 3c ea cc 66 3b 1c c1 91 bc 5f 7c aa bc
       0.012812147 0.0035217353 -0.017792277 -0.020811258
000050 5c c8 8b bb 7a c9 17 bc 75 5b 5e ba b6 cc 95 3c
       -0.004265828 -0.009264344 -0.0008482256 0.01828609
000060 fb 46 25 bc 12 7e bc 3c a5 49 5a 3b 68 a7 9d bc
       -0.010087724 0.023009334 0.0033308056 -0.019244865
000070 af 8c 57 3b d7 12 9a bc f1 26 5c 3c d2 bb 6e 3c
       0.003289025 -0.018807812 0.013437019 0.014571147
000080 6c 99 cc 3c 1f d3 18 3c 11 30 f3 bc 9f fb 98 3c
       0.024975501 0.009327679 -0.029686006 0.01867467
000090 be 43 4f bb 02 b4 1b 3c 49 c2 1c bc 88 64 ee bb
       -0.003162607 0.009503366 -0.009567806 -0.007275168
0000a0 8e 4f 4a bc a4 a7 1d 3b dd 8a 04 ba 3a 06 8a 3a
       -0.012348069 0.002405622 -0.00050560926 0.001053042
0000b0 2f b3 8f 3c ab 90 9e bb 65 fe de bc bb 55 f6 bc
       0.017541496 -0.004839023 -0.027220914 -0.030070176
0000c0 8f 0b aa 3b 71 79 e5 3c d0 94 2f bc c5 fa 1f ba
       0.005189366 0.02801201 -0.010716632 -0.0006102736
0000d0 0f 27 23 bc 6b ad ee 3b b6 41 0e bc 1a 92 3f bc
       -0.009958043 0.0072838566 -0.008682659 -0.011692548
0000e0 6f 13 fe bc 5e 22 5b bc 62 ad 10 bb 14 e2 f1 bc
       -0.031015126 -0.013374893 -0.0022076 -0.029526748
0000f0 1e bc 1a bc bc 22 93 3c a4 42 12 3d d3 08 7f 3b
       -0.009444265 0.017960899 0.035708085 0.0038915172
000100 54 e2 90 bc 61 6b bb bb bb df 3e ba 9d f0 fb bb
       -0.017686047 -0.0057195877 -0.0007281263 -0.0076885954
000110 44 94 6d 3b e5 18 0d 3c 4e 84 ed bc a5 1c 0a bb
       0.0036251703 0.008611892 -0.028993752 -0.0021074202
000120 11 58 8b 3c a7 43 73 bc e9 29 d1 3b b6 bb 0a bc
       0.017009767 -0.014847673 0.00638317 -0.008467605
000130 3a 7c 07 3c 7e 98 f7 bb ce 79 af 3c 2b e6 b4 bc
       0.008269364 -0.0075560203 0.021420386 -0.022082409
000140 6b 5c 7a 3b 4d a0 8a 3c 8f 30 ca bc 9a 32 9c 3c
       0.0038202058 0.01692214 -0.024681358 0.019067097
000150 7c b6 ed 3c e0 4b 0a bd de e5 95 bc 0c 51 28 bc
       0.02901768 -0.033763766 -0.018298086 -0.010273229
000160 d3 5b c6 bc 7f 2e 1c 3c d8 df b0 bb 4b 46 a6 bb
       -0.024213707 0.00953257 -0.005397778 -0.0050742975
000170 63 61 10 bc b8 b0 bf 3c 91 12 77 3c dd 43 b2 bb
       -0.008812281 0.023399696 0.01508011 -0.005440219
000180 83 8c 0c 3b fd 28 53 bc d6 5f 98 b9 ad dc d6 3c
       0.0021446056 -0.01288819 -0.00029063103 0.026228273
000190 c1 fe ff bb c8 8c 8a bc 62 15 ba bc 5d d8 ad 3c
       -0.0078123515 -0.016912833 -0.022715274 0.021221334
0001a0 08 d9 82 3c 54 ec ed ba 2a b3 f5 bb 2a 51 f2 bc
       0.01597263 -0.0018152096 -0.0074981647 -0.029579718
0001b0 8d 32 33 3c c8 00 bc bc 6f 9d 72 bb 52 25 5a ba
       0.010937345 -0.022949591 -0.0037020107 -0.0008321601
0001c0 7d 52 21 3c 37 bb 1c bc 45 62 d2 3b a1 e2 a5 3c
       0.009846327 -0.00956612 0.006420406 0.020249667
0001d0 54 60 9f bc 3c 96 9b 3b ce 21 3c bb 57 56 c3 3c
       -0.019455113 0.004748134 -0.0028706673 0.023844881
0001e0 3d 1e df 3b 29 86 dc 3b 15 7c bc bc dc 71 99 3c
       0.0068090246 0.0067298603 -0.023008386 0.01873105
0001f0 ea 60 c4 3c 47 d4 73 bb 2f b0 1f bb 57 ba 15 3b
       0.023971993 -0.0037205385 -0.0024366488 0.0022846663
000200 9c 3a 8c 3a 4b 50 08 bd a8 32 c7 bc 50 c3 76 bc
       0.0010698619 -0.0332797 -0.024316147 -0.015061215
000210 9c 29 c2 3c e2 31 22 bc 44 bb 8e 3c d8 b3 11 bb
       0.023701482 -0.009899588 0.01742328 -0.002223244
000220 38 db 83 bc 39 ac 20 3c 4d 06 8e 3b 40 58 d3 3c
       -0.016095743 0.009806686 0.004334247 0.025798917
000230 06 4f 7c 3c b5 03 a5 3c 0a af 8c 3b ff d0 2b 3b
       0.0153997 0.02014337 0.004293327 0.00262171
000240 51 d6 43 3c df 33 fd 3c 4c 4b f2 bc 00 08 d7 ba
       0.0119529525 0.030908523 -0.02957692 -0.0016405582
000250 7b d0 dd 3c 90 51 80 bb ce 86 9d bc a3 0e 7e 3b
       0.02707695 -0.003915973 -0.019229319 0.0038766048
000260 98 4e d5 3c 21 a1 97 3c f0 dd ab bb ce 0e 90 bc
       0.026038453 0.01850945 -0.005244963 -0.017585184
000270 31 f7 d8 3b 23 56 bc bc 7c 6b d8 3a 8a 90 75 bc
       0.0066212644 -0.022990292 0.0016511525 -0.014988074
000280 9d 41 7e bc 2d f1 a3 bc fc 38 ec bb a9 31 0c 3c
       -0.015518573 -0.020012463 -0.0072089415 0.008556762
000290 d5 f2 a9 3a ab c2 14 3d 9a f3 52 3b d9 92 c0 3c
       0.0012966046 0.036318462 0.0032188655 0.023507522
0002a0 7e 50 08 3b b5 60 d8 3c 78 09 a4 3c a2 eb e1 39
       0.002079993 0.026413301 0.020024046 0.00043090904
0002b0 55 9d 49 bc fc 0c c8 bb 2e 9c c9 3c 12 22 03 bc
       -0.012305577 -0.0061050635 0.024610605 -0.008003728
0002c0 0e 8a 66 3c fa 17 41 bc 38 ff 19 3c 73 34 8f 3c
       0.014071001 -0.011785502 0.009399228 0.017481064
0002d0 ec c4 99 bc 9e 3d c8 bb 42 93 01 bd c0 d8 43 3c
       -0.018770657 -0.006110861 -0.031634577 0.011953533
0002e0 5f d0 29 3c 30 de d8 ba 4e df ba 3b ca 8c c4 bc
       0.010364621 -0.0016545709 0.0057028895 -0.023992915
0002f0 74 6e 17 3b bd c5 d5 3c 5b 4f 0f 3c 6e 14 95 3c
       0.0023106607 0.026095266 0.008746947 0.018198218
000300 13 c5 f8 bc b4 7b 94 3c 1b c2 98 3c cc 08 14 bd
       -0.03036741 0.018125392 0.018647244 -0.0361412
000310 5f 10 4f bc 91 c0 3b 3c d8 48 93 bc e7 4c 37 3c
       -0.0126381805 0.011459486 -0.01797907 0.011187769
000320 1f 96 84 bc 43 7b 0e 3c 67 20 ea bc 4e eb 23 bc
       -0.016184865 0.00869638 -0.028579904 -0.0100048315
000330 26 91 e3 3b 60 2d 42 bd 55 9f 7e 3c 37 00 f4 bc
       0.0069447933 -0.047406554 0.015540917 -0.029785259
000340 d8 e6 5a 3c ac 89 ca 3b 1d a9 b8 bb 4d 1e cd bb
       0.0133607015 0.0061809625 -0.0056353942 -0.0062597157
000350 5c 10 d9 bb 05 e0 4c ba c9 35 d8 bc 07 18 ed ba
       -0.0066242646 -0.0007815364 -0.026392834 -0.0018088826
000360 e1 3b 83 bc 6b c8 2f 3b 33 0f 31 bc 6b 12 e0 3b
       -0.016019763 0.002682234 -0.010806846 0.006838133
000370 98 d0 92 3c 46 ba 8a bb 35 3b 33 3b 04 31 97 ba
       0.01792173 -0.0042336313 0.0027348523 -0.0011534994
000380 f0 62 da bc 70 ad d7 bb 59 d3 ad bc f2 13 1f bb
       -0.026658505 -0.0065819547 -0.021218942 -0.0024273363
000390 47 07 0d bc 58 98 12 3c c7 e8 58 3d e0 b6 f9 bb
       -0.008607692 0.008947454 0.05295637 -0.0076206774
0003a0 ec e6 6a 3b 4d eb ec bb d2 88 06 bc 3c 02 65 bc
       0.0035843207 -0.0072301985 -0.008211331 -0.0139775835
0003b0 02 ce 50 bc 91 83 8c bc fc 6b c1 bc 83 71 44 3b
       -0.012744429 -0.01715258 -0.023611061 0.0029974885
0003c0 7c 41 60 bc 26 4e 0f 3c 03 b8 1a 3c 71 ed d3 bb
       -0.013687488 0.008746659 0.009443286 -0.006467514
0003d0 c3 f9 09 bc 37 98 87 3c b5 8d bf 3b b0 ac 35 3c
       -0.008421364 0.016552074 0.00584575 0.011088535
0003e0 af cc bb bb c4 5e f5 bb 7b 70 8c 3c bd c1 33 3c
       -0.0057311873 -0.0074881036 0.017143479 0.010971484
0003f0 8d 8b df 3c 6e 4e 9e bc 7f d3 55 3c f4 cf 50 bb
       0.027288223 -0.019324508 0.013050913 -0.003186223

MatMul_1 f4 [32, 32]
000000 03 1e 1e 3e 09 55 4d 3d ad 68 35 3e 8d f1 ae bd
       0.15441136 0.050129924 0.17715712 -0.08542166
000010 32 39 02 3e aa 24 e4 bd 5a 41 0b 3e 55 d6 84 bd
       0.12717131 -0.111398056 0.13599148 -0.06486193
000020 3c 6e 43 bd 2a f2 1b 3d 84 60 28 3e 31 a0 b0 3c
       -0.04771255 0.038072743 0.16443068 0.02156076
000030 6d 1a 9f bc 6b 63 15 3e c3 a5 23 be 09 2a ee bc
       -0.01942178 0.14588706 -0.15981202 -0.029072778
000040 17 1d 82 3d f1 35 02 3e f7 bc ea 3d 69 9f a5 bd
       0.06353205 0.1271589 0.114618234 -0.08087046
000050 7b 01 3c 3e e3 a9 ef 3d 1d bd 37 be 74 f6 1b 3e
       0.1835994 0.11702325 -0.17943235 0.15230733
000060 3a 08 94 bd 27 0c e9 3d 8c bb 05 3d 6c 57 bc bd
       -0.072281316 0.11379271 0.03264956 -0.09196362
000070 03 d4 97 3c e1 ac 21 3d c8 b1 a5 3d 1e 67 2b be
       0.018533712 0.03947151 0.0809055 -0.16738555
000080 c4 0b 90 bd 94 be 2c bd ec 32 02 be 4c 11 ca 3d
       -0.07033494 -0.042173937 -0.12714738 0.0986658
000090 ce f8 c2 3b 41 21 12 3e a1 0c 1a 3c 02 b6 0d bd
       0.00595007 0.14270498 0.009402425 -0.034597404
0000a0 f1 18 1f 3e 1e d6 31 3e e4 43 b8 3d 8b ee bd 3d
       0.15536858 0.17366835 0.08997324 0.09274014
0000b0 33 4f 0d 3c 9b dc c5 bc 5e a8 85 bd 3d fe e0 3c
       0.00862484 -0.024153044 -0.06526254 0.02746498
0000c0 9f 2f 20 bc 3a dc 13 be f1 ca 00 be 1f fb 72 3d
       -0.009776979 -0.14439479 -0.12577416 0.05932152
0000d0 07 4a 2c be e1 d9 42 3d 81 50 8d ba a7 ce ef 3d
       -0.16825114 0.047571067 -0.0010781438 0.11709338
0000e0 8f 84 95 bd 72 49 00 be 88 17 2e be 37 8c e7 bd
       -0.07300674 -0.12528017 -0.17001164 -0.11306041
0000f0 53 09 91 bd 0c 4d b9 3d 32 6e 24 3c 2d 3c 0d 3e
       -0.070818566 0.09047899 0.010036038 0.13792486
000100 68 24 af 3d 94 34 cc bd 44 18 39 3e cb 82 86 3c
       0.08551866 -0.09970966 0.18075663 0.016419789
000110 5d 76 c4 3d d7 b3 f2 3c ab 82 00 3e 62 2c ac bc
       0.095928885 0.02962677 0.12549846 -0.021017257
000120 ea d9 19 3e 21 ed 9e 3d fc 93 80 bd 71 64 34 3d
       0.15024534 0.077600725 -0.06278226 0.0440411
000130 b2 1b 0a bd 9e 8b 99 3d d3 3f 19 be 36 9a 74 bd
       -0.03371782 0.07497333 -0.14965753 -0.05971738
000140 5a ae 21 be 51 22 a2 3d 1b d7 bf 3d 9a bc 21 be
       -0.15789166 0.079167016 0.093672 -0.15794602
000150 4e 69 22 3d 9d 9a 83 3b 35 6d 42 be 5d e4 8e bd
       0.039651208 0.004016234 -0.18986972 -0.069771506
000160 04 10 01 3c a8 b9 27 3d fb 7b e7 bd 14 09 80 bd
       0.007877354 0.04094854 -0.11302944 -0.062517315
000170 5c e7 9b bd 8c d4 0b 3e 1d f5 e0 3c 53 bf 33 bb
       -0.07612488 0.13655299 0.02746063 -0.002742727
000180 97 08 94 3d 61 0a ef bc ac 40 af bc cf e9 e3 3d
       0.07228201 -0.029179754 -0.021393143 0.1112858
000190 b1 8f 00 be 34 5c 0f 3e a7 cb bd bd 32 04 ac 3d
       -0.12554814 0.14000016 -0.09267359 0.08399238
0001a0 14 01 14 be 04 c7 4e bd 6e 0e 19 3e a4 93 67 3d
       -0.14453536 -0.050482765 0.1494691 0.056537285
0001b0 a1 ad 22 3d 80 aa c7 bd 96 91 3e be af 88 7b bd
       0.039716367 -0.09749317 -0.18610224 -0.06140965
0001c0 e8 ab e4 bb b0 14 c6 bc 44 0f 93 3d 24 7d 0a 3e
       -0.0069785006 -0.024179786 0.07180646 0.135243
0001d0 b4 c1 be 3d 13 1a 3a be 77 e8 25 be 65 77 0f 3e
       0.0931429 -0.18174009 -0.1620196 0.14010389
0001e0 b1 02 1e be 0f d5 b2 3c c0 7f f1 3b ae 8b 1e 3e
       -0.15430714 0.02183011 0.0073699653 0.15482971
0001f0 75 bd 1c 3e 73 c7 18 3e ac 18 cb 3d 33 04 c4 bd
       0.15306647 0.14919834 0.09916815 -0.095711134
000200 8c b6 b9 bd 9e 6f be 3d 8a e8 33 be 82 e6 4e 3d
       -0.09068021 0.09298633 -0.17569175 0.050512798
000210 91 56 15 3e ff d7 ed 3d 8d a6 fd 3d 8b bb b6 3d
       0.14583804 0.116134636 0.12385283 0.0892249
000220 31 c4 0b be 6a fd 85 3c fa 09 94 bd 17 bb 9d bd
       -0.1364906 0.016356189 -0.072284654 -0.077017
000230 00 f3 db 3c 19 f0 84 bb 8a 23 f9 bd fb 5c 15 3c
       0.02684927 -0.004056942 -0.12164982 0.009116407
000240 e1 11 46 3c 83 fa 80 3d 1a 32 13 be 5d f0 e6 bd
       0.012089224 0.06297781 -0.14374581 -0.112763144
000250 34 d6 fa 3b 21 22 63 bd 3d 75 96 3d 31 6f 09 3e
       0.0076549295 -0.05545247 0.0734658 0.13421322
000260 c6 8d 3e be a8 07 cd 3d db c5 5e be f7 de 06 3e
       -0.1860877 0.10011226 -0.21755163 0.13170992
000270 7f 96 0d 3d 84 a0 a9 3d 44 bb c2 bd 67 cf f4 bd
       0.034567352 0.08282569 -0.09508374 -0.11953621
000280 34 7b e4 bd 26 8a d7 bd 2a c3 84 bd f5 e0 3f bd
       -0.11156312 -0.105243966 -0.06482537 -0.046845395
000290 48 39 83 bc 3d 4e 80 bc fc c6 9e bc b2 e0 57 3d
       -0.016018525 -0.015662307 -0.019381993 0.05270452
0002a0 74 72 e5 3d a9 d6 89 bd 6e fd f7 bd 53 a3 84 bd
       0.11203471 -0.06730396 -0.12108885 -0.06476464
0002b0 5c cd 84 bc be 2b 9c bd 36 2c e6 bd bd 20 a6 3d
       -0.016211204 -0.07625531 -0.11238901 0.08111713
0002c0 8a f3 1b 3e cf 69 a4 3c 22 f7 b6 3d 27 f4 ec 3c
       0.15229622 0.020069985 0.089338556 0.028925015
0002d0 b3 90 5b bd 04 84 0b be ba e5 3c 3e 16 5b f7 bd
       -0.053604793 -0.13624579 0.18447009 -0.1207792
0002e0 c6 a0 5c bd a6 ef eb 3d 8e 56 27 be d9 43 aa bd
       -0.053864263 0.11520319 -0.16341612 -0.08313722
0002f0 91 cc 0c bc b8 d7 bd bd c1 f7 05 3d 93 55 0f be
       -0.008593694 -0.09269661 0.03270698 -0.13997488
000300 b4 11 18 bd 9a c7 82 3c 9d a3 d8 3c 25 6b 81 3d
       -0.037126258 0.015964318 0.026445204 0.06319264
000310 14 03 26 be 0e ba 43 be 3e 99 3f be fc 93 dc bd
       -0.16212112 -0.19113943 -0.18710801 -0.10770413
000320 12 1f 22 bd 4c ec 5e bc 4a 24 99 3d cc 80 99 3c
       -0.039580412 -0.013606142 0.07477625 0.018738173
000330 bd c9 3e 3d ab 66 f1 bc ff b8 02 bc 1d 36 04 3e
       0.04657911 -0.029467901 -0.007978677 0.12911268
000340 06 1f 7a bd 0a 0f c6 bd 1b d8 e6 3d 9c 58 1a 3e
       -0.061064743 -0.09670837 0.112716876 0.15072864
000350 d3 79 40 b9 bf 8b 6d bd 73 11 00 be 95 0a 15 3e
       -0.0001835593 -0.0579946 -0.12506656 0.14554818
000360 38 be 22 3e 4a ad 05 3e 68 77 99 3d 2d 0a 3e bd
       0.15892875 0.13054386 0.07493478 -0.046396423
000370 2d 3a c5 3d 0a ac cc bd ca 69 4f 3d e1 61 06 3e
       0.09630237 -0.09993751 0.050637998 0.13123275
000380 7d 64 c7 bd 0b 5f 16 3e 86 2b ef bc 8f 85 6e 3b
       -0.097359635 0.14684694 -0.029195558 0.0036395525
000390 b4 41 66 3d 0a 06 ff 3d ee a5 37 3b c1 ed 92 bc
       0.056215003 0.12452324 0.0028022486 -0.017935636
0003a0 dc 05 8b 3d da 23 c4 bd 87 e4 3d 3e d3 6c 20 3e
       0.06788227 -0.09577151 0.18544208 0.15666513
0003b0 bd be 2c be e2 1a 09 3d 26 ec 03 3d 94 37 f9 3c
       -0.16869636 0.033472903 0.03220763 0.03042201
0003c0 a8 28 a3 bd fa c8 a7 bc ed 1b 85 3d 3e 8d ae 3d
       -0.07966739 -0.020481575 0.06499467 0.085230336
0003d0 89 11 b3 bd a5 44 fa 3d dc 2b 41 3e 1a 86 bf 3d
       -0.08743579 0.12220124 0.18864387 0.0935175
0003e0 d4 48 cd bd 2f f3 fc bd 84 7f 06 be 53 e1 80 3d
       -0.100236565 -0.12351071 -0.13134581 0.06292977
0003f0 98 25 d4 3d 89 5c ae bd d6 63 ec bd 1b 28 20 be
       0.10358733 -0.085137434 -0.1154248 -0.15640299

MatMul_2 f4 [1, 32]
000000 56 78 71 3e ff 6c b4 3c a2 3f b7 3d 41 30 3a 3e
       0.23581061 0.02202463 0.08947684 0.1818247
000010 cd 41 45 3e 1f 30 41 3e 71 79 9f be ed 78 ca 3c
       0.19263382 0.18866013 -0.3114734 0.024715865
000020 b7 18 12 3d 5b c3 ad be c0 68 68 3e fe 7b 9f be
       0.0356681 -0.33938107 0.22696209 -0.31149286
000030 e5 bf a6 be d7 eb a5 3d b1 2c a4 be 56 eb 53 3e
       -0.3256828 0.081016235 -0.32065347 0.20695242
000040 9d be 9f be bd 80 fc 3d 91 7f 05 3e af be 86 3d
       -0.31200114 0.123292424 0.13036944 0.06579339
000050 4c c4 28 3e 90 ba b2 be e8 3c 97 3d 9e 57 a8 be
       0.16481131 -0.3490796 0.07384664 -0.32879347
000060 21 50 b3 be 96 b7 0e 3e 15 f3 76 3d 71 db 7c 3e
       -0.3502207 0.1393722 0.060290415 0.24693085
000070 04 9d 9f 3c de cd 36 3e 0d ae 98 be e4 82 25 3e
       0.01948405 0.1785197 -0.2982029 0.16163212
